best_model.pth (torch, 3257 bytes, 5 tensors)

net.0.weight f4 [4, 6]
000000 70 fd fc 3f f4 60 0a 3f 3c 48 d7 bf 66 78 f2 3e
       1.9764843 0.5405419 -1.6818919 0.47357482
000010 00 d2 44 3f be f0 8a bf 28 47 41 bf 8d ec a0 bf
       0.76882935 -1.0854719 -0.754992 -1.257219
000020 ac ed 9a 3f ed 25 dc 3e 9c 48 b8 3f da 66 c5 bf
       1.2103782 0.42997685 1.4397159 -1.5422013
000030 ab 9a 88 3f d4 8b 28 3f 90 4e 71 3d b4 cd 1e bf
       1.0672201 0.6583836 0.058912814 -0.6203263
000040 d6 60 1a 3e 18 fc 01 bf 84 0f 29 bf 1e f6 60 3e
       0.15076002 -0.5077529 -0.660393 0.21968886
000050 24 3b b3 bd c0 7e 09 be 1f f3 53 bf 98 78 3d 3f
       -0.087515146 -0.13427258 -0.8279285 0.74012136

net.0.bias f4 [4]
000000 e8 72 33 bd c8 65 0e 3f 9e 77 4f bf 02 ba 73 bf
       -0.043810755 0.55624056 -0.81041896 -0.952057

net.2.weight f4 [4, 4]
000000 ec 87 cf bf 70 c5 91 3f 18 ae 16 3f 02 12 18 3f
       -1.6213355 1.1388378 0.58859396 0.5940248
000010 45 cb e8 be a7 68 72 bf 7c ed c7 be 80 39 78 bf
       -0.45467582 -0.94690937 -0.39048374 -0.9696274
000020 3e 18 0d 3f d4 e6 4c 3f a0 20 1e 40 a2 1e 0a 3f
       0.55115116 0.80039716 2.4707413 0.5395299
000030 c8 82 db 3d 5e c3 c0 bf ac b0 0e 3f 68 58 00 bf
       0.10718304 -1.5059621 0.5573833 -0.501349

net.2.bias f4 [4]
000000 90 78 ac 3f ad aa b4 bd 40 8c 36 3d 28 4b 32 be
       1.3474293 -0.08821616 0.044567347 -0.17411482

net.4.weight f4 [1, 4]
000000 8b ee bd 3f 34 36 0f 3f 3e f1 81 be 58 01 e2 bd
       1.4838423 0.5594208 -0.25379366 -0.110354125
